Birds-vs-Planes-CIFAR10/Birds-vs-Planes-CIFAR10birds_vs_airplanes.pt (torch, 75279 bytes, 8 tensors)

conv1.weight f4 [16, 3, 3, 3]
00000000: a8de c1bd 1c8d 7d3d e13d debc 8a92 2c3d
00000010: 6c45 43be 0e2a 373e 9c47 34bd 5d93 46be
00000020: 3516 25be f590 373d d9fb ffbc cd2c f93d
00000030: 65be 78be 2952 35be bbc1 35bd 7f5d 18bd
00000040: 6611 89be fc46 fe3c 8ebe 53bd 6fa9 1c3e
00000050: 7c28 603e f8ec c7bc 1bd3 4e3d e543 833e
00000060: 03ac 5cbc 53a9 a83d 18e6 16bd 11d1 bb3b
00000070: 50a5 e03d 89c7 a4be 056f f43d 1fe7 2b3e
00000080: 6edd b43d 0f0e 1f3e d918 923e 7d35 a93d
00000090: b86e 8ebe 6374 a7bd 7383 5abe 7f9a b7bd
000000a0: 0001 66bd 18cd 05be 5d61 c9bc 02ad 503e
000000b0: 83aa f63c 829f f6bd 2574 20bc 06f0 a23d
000000c0: 7d52 9b3c 58e3 483d 8c14 813d c78f 88bd
000000d0: 1721 b0bd 5271 9b3c d4f9 aa3d 4896 28be
000000e0: d4c5 8dbd de0c 923e c7c5 ba3c 15ee 54be
000000f0: e975 803d 22a5 883e a3c9 e2bd 3f1f d3bd
00000100: d437 0abe 2ca5 40bd 22ba 2b3d 6e5c 37bd
00000110: f92b a3be 88b8 be3d 86d6 853e 8f72 193e
00000120: 2401 2bbe 3668 6cbe 8b34 05bc 9dca a83d
00000130: 8334 533d 5c04 a6be dd91 693b c0fc 453e
00000140: 4c22 963d 1903 013d ad2b 3a3d a3fc 81bd
00000150: 8a2d e8bc 4f67 3cbd de59 d8bd 12ac 953d
00000160: 38cd d53d bf24 063e 287a 0cbe 8e33 0d3e
00000170: fec3 663c c54a 603e b42d 0abd 88f4 a63d
00000180: 87bf 223e 99ea 3e3e 1538 883e 65e8 4ebc
00000190: b31a 153e 1caf 3bbe 615e e33d bd86 a0bd
000001a0: 4cef bbbb 44b8 65bd f6a3 963d 9ff4 983e
000001b0: e877 9b3d f361 803c 54e3 363e 7408 95bd
000001c0: 4885 4f3e b811 0ebd 2838 ddbd 35fa bb3b
000001d0: 9661 41be 53b1 2fbc 976d 933d 9f12 5a3e
000001e0: efc2 2ebd b59c 463e f577 6e3e a20a ffbd
000001f0: 670d 733e b92f 93bd fbd7 09bd 5bcf 6cbd
00000200: d36c 5dbd ae94 c13d aa76 a8bd 5abb 1cbd
00000210: f5be 94bd 66ec 19be ec0f 9abd f987 ddbc
00000220: bb66 273e ff44 d43d ecc6 37bc fc8c 28be
00000230: 9495 0cbd 5b23 fcbc f2f7 483d 1476 823e
00000240: f46b 0b3e 26ca 72bc fa65 66bd 7f97 09bd
00000250: f6e6 99be d430 85be 873d d8bd 4ee6 13be
00000260: 7b48 01bd c121 8d3e fd14 403e 47a5 563e
00000270: 114e 93bd 9d36 1cbd a86b 6bbe 3c41 323e
00000280: 6787 eabb 0e21 eb3d 9792 81be 9d34 023e
00000290: 19de 843e 611b 213d f397 f0bc 007d 823e
000002a0: b4d4 1bbc c32a cb3d 1e1b bebd 61f7 87be
000002b0: ae7a 083a b227 453e 339c 74be 83b4 16be
000002c0: 3124 84bd 3879 2dbe f15d 233e 7378 82bb
000002d0: 8fd1 f3bd 0465 223d c06a ab3e 8fe4 96be
000002e0: a48f 58be 20aa a83d 6b84 58be 0d3e c03d
000002f0: 1802 103e 358b 09be fd96 14be 7ade 87be
00000300: c9b8 b03d 6ea2 153e b167 58be 2764 11be
00000310: e5fe 3a3d ff23 36be 132c 903e 0620 fd3d
00000320: 5653 7abd 0bcb f83c bfa8 8a3d 1d4d afbd
00000330: f3cb 84be ed81 74bd af5a a4bd 88fc 623d
00000340: ef3a 11bc d7da ab3d 09ad dcbd 6907 97bd
00000350: 1210 b43c 8626 64be 10fb 093c 682a fbbd
00000360: 6ed6 953d 00eb 9cbd 75b9 e93d bf89 ca3c
00000370: 70f4 23be 3c3b dabd ebbf 8d3d 6d0a 01bd
00000380: 1401 043e bd34 72be c5b9 1cbe 7b65 dcbd
00000390: a1ce 1e3d 14b6 e1bd 065c c4bd 7092 d3bd
000003a0: 0d84 6fbe 36bb ffbc 7421 15bc 416d 67be
000003b0: 8ba8 c23d 26ab d3bb bba7 aabe 2d71 b3bb
000003c0: e319 d93d bb6d e5bd bcd5 77be a39b bebb
000003d0: df03 a83d e6f3 523e 43c2 49be 49a9 c4bd
000003e0: 05a9 8a3e 221e d13d 6d9f 123e 7e2a 20be
000003f0: 4bc6 fa3d c5aa 79be 0d80 46bc 221a 76bd
-0.094662964 0.06190215 -0.027129116 0.042131938 -0.19069451 0.17887136 -0.044013605 -0.19392152
-0.16121753 0.044815976 -0.03124802 0.12166748 -0.2429138 -0.17707123 -0.04437421 -0.03719854
-0.26771086 0.031039707 -0.0516954 0.15299009 0.21890444 -0.024404988 0.050494295 0.25637737
-0.013468745 0.08235421 -0.03684053 0.0057317098 0.10969031 -0.32183483 0.11935238 0.16787384
0.08831297 0.15532707 0.28534582 0.08262155 -0.27818847 -0.08176496 -0.21339206 -0.08965015
-0.056153297 -0.13066518 -0.02458256 0.20378497 0.030110603 -0.120421425 -0.009793316 0.07955937
0.018960232 0.049044937 0.06302747 -0.06668048 -0.086000614 0.018974934 0.08348432 -0.16463578
-0.06922498 0.28525442 0.022799386 -0.20793946 0.062724896 0.26688486 -0.110736154 -0.10308694
-0.13497859 -0.04703252 0.041925557 -0.044765882 -0.31869486 0.0931254 0.2614023 0.14985107
-0.16699654 -0.23086628 -0.008130203 0.082417704 0.05156375 -0.324252 0.003563992 0.19334698
0.0733076 0.031497095 0.04545181 -0.06347015 -0.028342027 -0.04599696 -0.10564016 0.073082104
0.10439533 0.13099955 -0.13718474 0.13789198 0.014084814 0.21903522 -0.033734992 0.081521094
0.15893374 0.1864418 0.26605287 -0.012628649 0.14560966 -0.18328518 0.11101986 -0.07838199
-0.0057353135 -0.056083933 0.07355492 0.2987413 0.0759123 0.015671706 0.17860156 -0.07277003
0.20265687 -0.034684867 -0.108017266 0.005736614 -0.18884882 -0.01072343 0.07198637 0.21296166
-0.042666372 0.19395716 0.23287947 -0.124532 0.23735581 -0.07186837 -0.03365324 -0.057814937
-0.05405886 0.094521865 -0.082257584 -0.03826461 -0.07262985 -0.15031585 -0.07522568 -0.027042376
0.16347782 0.103647225 -0.01121686 -0.16460031 -0.034322336 -0.030778578 0.049064584 0.2548071
0.136154 -0.014818704 -0.056249596 -0.033591744 -0.30059022 -0.26013815 -0.105586104 -0.14443323
-0.031563263 0.27564815 0.18758006 0.20961486 -0.07192624 -0.03813802 -0.22990286 0.17407697
-0.0071572545 0.11480914 -0.25307152 0.12715383 0.25950697 0.03933275 -0.02936933 0.25485992
-0.009511162 0.099202655 -0.09282516 -0.26555923 0.0005206269 0.19253424 -0.2388771 -0.14717297
-0.064522155 -0.16940773 0.15953805 -0.003981644 -0.119052045 0.039647117 0.3347988 -0.2947125
-0.21148545 0.08235574 -0.21144263 0.09386835 0.14063299 -0.1343201 -0.14510722 -0.26536924
0.08628995 0.14612743 -0.21133305 -0.14198361 0.045653243 -0.17787169 0.28158626 0.123596236
-0.06111463 0.030370256 0.06770467 -0.0855963 -0.2593685 -0.05969422 -0.08025109 0.055416614
-0.0088641485 0.0839135 -0.10775191 -0.0737446 0.02198032 -0.2228032 0.008421674 -0.12263948
0.0731629 -0.0766201 0.11412326 0.024723886 -0.16011214 -0.10655829 0.06921371 -0.031504083
0.12891036 -0.2365293 -0.1530524 -0.10761543 0.038771275 -0.11021057 -0.095878646 -0.10330665
-0.23390217 -0.031217199 -0.009102214 -0.22600271 0.09504803 -0.0064596115 -0.33331093 -0.005476138
0.106006406 -0.1120257 -0.24202627 -0.005816893 0.08203863 0.20600852 -0.19703011 -0.09602601
0.27082077 0.102108255 0.14318629 -0.1564121 0.12244853 -0.2438155 -0.012115491 -0.060083516

conv1.bias f4 [16]
00000000: 0703 21be bfbf 6cbe ba9a 59be 24a6 103e
00000010: 4e10 12be ca78 3fbe c51b dfbd 549e 1abe
00000020: de3b 3e3d a8a3 463e d66a 87be dbd8 bebe
00000030: e68e c03d 026c 34be 2957 033c c848 f6bd
-0.15723811 -0.2312002 -0.2125043 0.14125878 -0.14264032 -0.18698421 -0.108939685 -0.1509946
0.046443813 0.19398367 -0.26448697 -0.37274823 0.09402256 -0.17619327 0.008016386 -0.12025601

conv2.weight f4 [8, 16, 3, 3]
00000000: c41c a0bc ac65 003d 48ed b03c 9c72 87bc
00000010: 6a6f 793d 8d34 703d f750 9a3d d05a e73d
00000020: b3c2 2f3c deb3 1c3e 6aa6 8abc d7e8 633e
00000030: fa7a 163e d5ba c7bd 8612 b9bb cd4d 46bc
00000040: 47a2 ae3d 59b2 b6bc 4788 843d ed0f 8d3d
00000050: 13d6 503d 8aa6 77bb df75 47be e2ea 0fbe
00000060: 17c5 3fbd 6836 e9bd 6bb6 d7bd 1ca0 0abe
00000070: 76a4 3ebe 3377 efbd edc3 2ebb fcec bf3a
00000080: 9421 81bc 97fa 1abe 5d3b 32be 47f4 ebbd
00000090: d9d2 9dbd b76e dabd 89c0 2fbe bfa7 8cbc
000000a0: f3f1 28bd 2274 a1bd 26b3 c2bd 70f4 ddbd
000000b0: de17 9fbd d0d3 e53d 8de4 963d ab74 23bc
000000c0: 62b7 af3d 7032 b43d 7aa2 983d 502f f93d
000000d0: 491d eb3b 2ab2 9d3c 9250 8bbd 9fa3 e8bd
000000e0: 2677 94bd 3e62 1fbe f54a 0dbe 69f6 afbc
000000f0: a7cd 50bd 6e0b 3d3c 704f dabc 4501 f33c
00000100: 7a7b 263d 312d c5bd 938d bbbc 1e67 05bd
00000110: 0ed3 f6bd 42d1 b83d 8d65 323c f70a d7bd
00000120: 7349 9cbd 1637 a6bd e179 a5bd 0725 fabd
00000130: e016 41be 7646 edbc e954 5a3c 6b90 c1bd
00000140: f5a3 f03c 8f43 813d 6200 9bbb 506f 0b3d
00000150: f597 463e 5b4f 853d e62b 2b3d d85d 9ebd
00000160: 4075 8c3a 510c c3bc b6a8 f53c 256f 603d
00000170: 1ea2 283e d937 a73d fc15 053d 398e 343d
00000180: 49c0 bf3d a3d7 153d 1e0b a53c 46b7 81bd
00000190: fc28 213d 58cb dd3c 4c0d 6dbc 9b26 cf3b
000001a0: bcd6 d63d cea6 3cbd d97c 13be e4c8 373d
000001b0: 7c37 c63c a304 383d ac31 e93c 6719 a7bd
000001c0: a104 49be 24e9 9cbd 1fce 8dbd 6cd0 13be
000001d0: dcf9 1dbe de7a 08be 6318 5bbc 06a1 d5bb
000001e0: f637 a53c 2bb8 07bd b783 33be 1026 37bc
000001f0: 2f35 b0bd b043 81be cf4a 0fbd fadb 2bbd
00000200: 3143 af3d a22a c4bd 7c52 42be a5f3 0cbe
00000210: 4738 15be 9b38 13bb c989 bebd 971b 89bd
00000220: 5028 48bd 57a3 4f3d 32eb 6ebe 4a95 d8bd
00000230: 7aa7 20be 82f7 e1bd ff6e c0bd 9d5a 02be
00000240: 51b3 fdbd fe42 2cbd b670 9abd 9976 4abe
00000250: 3374 91bc 32ae e8bd b851 723d f26f 513d
00000260: e5c4 c1bd 56d8 3cbe 37d8 fabc 2307 babc
00000270: 50d9 713e a3fa 473e 9b91 773e 29fd 163e
00000280: 2f6a 393e 903b d63d b456 69be 5d4a f0bd
00000290: 7955 d0bd 8496 4e3e 196c b73d a6c0 b4bc
000002a0: f9be a03d 43f5 413e 3551 983d af80 ffbd
000002b0: aa03 a5bd 8b60 e6bd d1a3 7abc 9072 cfbd
000002c0: cce5 713c bee7 653d e6d3 d2bd d5fd a9bd
000002d0: 6706 6f3e c4aa f13d 9cbb 383e f58f f33c
000002e0: 9e39 8a3b 8b20 883d 83a4 3a3e 1396 993d
000002f0: f20d e93d 2e47 e23b bc96 94bd a463 16bd
00000300: 3098 c33d 1aa5 d73d c9f3 1ebd 9eac 2f3d
00000310: 9831 173d 913c 2c3d 1539 b7bd 5074 76be
00000320: 66c4 b6bd 62f3 8c3d 3e42 ffbd a892 90bd
00000330: 1f36 89bc fbd4 71bd 24d6 3cbd 7b53 1d3e
00000340: 88e2 753e fa24 13bd 6c0a 373c 143f dfbd
00000350: 7b03 d0bc 70bd cb3d 67d9 763b c7e0 223c
00000360: 7581 dcbd e851 ddbd a92c adbd ad62 41bc
00000370: db41 363e c2ec d5bb 618f 87be 9057 08be
00000380: 926b abbd 3bd4 30be 95b4 0ebe ec32 c63d
00000390: 36c5 18bc 27f7 85bd 550d 15be 5520 de3a
000003a0: 4ded a3bd fbe6 60bd a684 d93d b3eb e13d
000003b0: c9e1 44bd 3f19 d73c 2d8d 0d3d d0c3 54bc
000003c0: e009 c7bd 9fa4 86bd 3a77 ae3c 2b14 3abd
000003d0: 134b c1bd fadb b3bb 9ca0 193e 1a54 653d
000003e0: 027d 323e 258e 193e fa65 233e f4ab 7b3e
000003f0: e84f 9fbd 7cce 9fbd 7534 31bd cbc9 c2bc
-0.019544967 0.03134696 0.02159752 -0.016534142 0.06089727 0.058643866 0.07534974 0.11296618
0.010727572 0.15302989 -0.016925056 0.2225679 0.1469535 -0.09752432 -0.00564796 -0.01210351
0.08527046 -0.02230184 0.06471305 0.06887803 0.050985407 -0.0037788474 -0.19478558 -0.14054444
-0.04681882 -0.1138733 -0.1053284 -0.1353764 -0.18617424 -0.11692657 -0.0026667074 0.001464277
-0.015763082 -0.15134655 -0.17405458 -0.115212016 -0.077062316 -0.106656484 -0.1716329 -0.017169831
-0.041246366 -0.07883479 -0.09506826 -0.108376384 -0.07768224 0.11222041 0.07367811 -0.009976546
0.08579899 0.08798683 0.07452865 0.12167227 0.007175122 0.019249994 -0.06802477 -0.11359333
-0.07249288 -0.1556482 -0.13798125 -0.021479802 -0.050977375 0.01153837 -0.026649207 0.029663691
0.0406451 -0.0962776 -0.022894656 -0.032569043 -0.12051974 0.09024288 0.010888469 -0.10500138
-0.07631197 -0.081159756 -0.08079887 -0.12214094 -0.18856382 -0.028964262 0.013325908 -0.09451374
0.029375056 0.06311714 -0.0047302702 0.034041703 0.19393905 0.065092765 0.04178991 -0.07732743
0.0010716096 -0.023809584 0.029987674 0.054793496 0.16468093 0.08164949 0.03249167 0.044080947
0.09362847 0.0365826 0.020146903 -0.06333785 0.039345726 0.0270745 -0.014468502 0.006321741
0.10490176 -0.046057515 -0.14403094 0.04486932 0.024196379 0.044926297 0.028466068 -0.08159142
-0.19630672 -0.076616555 -0.0692408 -0.14434975 -0.15427345 -0.1332812 -0.013372513 -0.0065194396
0.020168286 -0.03313462 -0.17530714 -0.011178508 -0.08603894 -0.25246954 -0.034983452 -0.041957833
0.085577376 -0.09578444 -0.18976778 -0.13764818 -0.1457225 -0.002246416 -0.09303624 -0.066947155
-0.04886657 0.050692882 -0.23331907 -0.1057535 -0.15688887 -0.110335365 -0.09396171 -0.12729879
-0.123877175 -0.042056076 -0.07541029 -0.19771804 -0.017755603 -0.1136135 0.059159964 0.05113215
-0.09461383 -0.184419 -0.030620677 -0.022708481 0.23618054 0.19529204 0.24176638 0.1474501
0.18106912 0.104605794 -0.22786981 -0.11732934 -0.101725526 0.20174605 0.08956165 -0.022064518
0.07848925 0.18941216 0.07437364 -0.12475716 -0.080573395 -0.11248883 -0.015297846 -0.10129273
0.0147642605 0.05612921 -0.10294323 -0.08300368 0.23342286 0.11800149 0.18040317 0.02973173
0.0042182943 0.06646832 0.18226819 0.074993275 0.11379613 0.006905458 -0.07255313 -0.03671612
0.09550512 0.105295375 -0.03880671 0.04288923 0.03691253 0.042049948 -0.089464344 -0.24067807
-0.08924179 0.06882359 -0.124638066 -0.070592225 -0.01674944 -0.059041005 -0.046102658 0.15363877
0.24012196 -0.035923935 0.011171918 -0.10900703 -0.025392285 0.09948242 0.0037666203 0.009941286
-0.107668795 -0.10806638 -0.08455784 -0.011803311 0.1779856 -0.006528468 -0.26476577 -0.13314652
-0.08370127 -0.1726846 -0.13936074 0.09677681 -0.0093243625 -0.06541281 -0.14555867 0.0016946892
-0.08004246 -0.05490778 0.10621004 0.11031284 -0.048066888 0.026257155 0.034558464 -0.012986138
-0.097186804 -0.06574368 0.021297086 -0.04542939 -0.094381474 -0.0054888697 0.15002674 0.05598841
0.17430499 0.1499563 0.1595687 0.24577314 -0.07778913 -0.07803056 -0.043262918 -0.023777863

conv2.bias f4 [8]
00000000: 2244 9cbd af3b b63d 5e99 3fbe c8ed 67be
00000010: 8b35 a5bd 87aa 8cbd a8e8 29be 37e6 3dbe
-0.07630183 0.088981025 -0.18710849 -0.226493 -0.08066853 -0.06868463 -0.16592658 -0.18544851

fc1.weight f4 [32, 512]
00000000: dcdc 3fbd d752 f93c 096f 1d3d 054e 2b3d
00000010: f16e d73b 16bd ee3c f704 55bb fe72 09bd
00000020: fb4e 1fbd 4cc9 f2bc 113b 7b3c 9a21 15bc
00000030: 5f45 6f3c 7d76 933c 142a d6bc 1b24 023a
00000040: 22ac 203d 0b34 ec3c cffa 6dbb 9fe9 b4bb
00000050: 1c1d 2cbc 8d84 413c 38e1 c6bc eb3a 253d
00000060: fdf7 9f3a c9fb e8bc 9d1a cdbc f312 3fbc
00000070: 6362 fcbc d967 6abc ead9 30bd 6a7f 623c
00000080: 5032 4dbc 39a7 663c 0c9b c6bc 69ca 95bc
00000090: 1d62 a6bc 9696 f33a 4311 0abd d036 1dbd
000000a0: e311 ff3b 65aa 18bd 9407 223d ea1c 1c3d
000000b0: b489 d43c 1fa3 ee3c f5d2 e9bc f662 b73b
000000c0: 9222 613c 0c8e 3c3d 05f3 0bbd cea5 91bb
000000d0: c5c3 c73c 169a b53c c882 26bd da20 1b3d
000000e0: 8e2a c43c b3c6 193d a060 85bc ef4f a8bc
000000f0: e947 213c 7a0b ed3c eeac 253d a4d9 c1bc
00000100: 1340 d53c 1eda 1dbc f1a0 99bc 900b d53c
00000110: f288 8d3c b0e0 e53b 248a e1bc cd99 313d
00000120: 3247 a0bb 7c54 31b8 62fc 5abc 25e8 15bd
00000130: c16c 35bb aba6 4a3c 075a 753b 9346 e3bb
00000140: 1113 253d 2433 d7bb 9563 0dbd 790f 97bc
00000150: f131 03bc 38bb e53c 4425 183d fb7c 7a3c
00000160: 71fa 513d 2811 203d 0460 8a3c 3056 c93c
00000170: 296b bf3c cccf ae3b 2684 353d 5933 26bc
00000180: 69e3 0abd 1175 25bd d8bc d53c 0ca7 ddbc
00000190: 97dd 8a3c dcd3 d23a 5212 26bd 4124 57bc
000001a0: 2d20 8e3c 1e5f a93a 4dc2 823c acd1 8fbc
000001b0: 81e5 84bc a731 1bbc 155e 1bbd f771 febb
000001c0: 8631 b83b e3a2 803c 1ee3 a7bc 016a f43c
000001d0: 9e4d 05bc badd 31bc 4060 56bc 63f7 0c3d
000001e0: 2158 08bb d49e cebc 8073 ecbc 5bb8 18bb
000001f0: 16fe 273c beb2 f9bc 111b 2fbd aa35 933c
00000200: bc7f 323c 7750 e0bc bf0f c3bc cbb0 0b3d
00000210: d713 eebc 85da d23c 370e f4bc 41b7 7f3c
00000220: b0a6 adbb aede 643c 91f1 633c 9ac9 c5bc
00000230: 3d52 2abd 888f e3bb 5495 e93b a465 2cbc
00000240: da4a 383c bf7f 153d a996 ebbc 481a 7c3c
00000250: 63d6 863c 0818 ce3c d51b a9bc f365 38bd
00000260: 43db e6bc c9e0 9c38 c05c 43bd 5569 163d
00000270: e216 223d 8aba 343c 43bb 05bd 737e 3dbd
00000280: d415 b73c e79c e7bc 97ee 423c c307 143d
00000290: 53f8 d9bc 7fbc c13c d7cd aa3a a6b1 583c
000002a0: d3da ad3c f591 6d3b be35 7e3c fe25 4abc
000002b0: ebbf 6d3c 8ee8 2e3c 8db4 fe3c 0278 223d
000002c0: 0daa 553c 4c15 0f3d 7cd5 2abd 3cbc a3bc
000002d0: fd10 27bd c090 80bc 23d5 0c3d c83b 24bd
000002e0: 30c1 c43c 1f83 86bc d84b 3b3b 9a8f 05bd
000002f0: cfb1 d0bc b3ed fb3b 3870 363b 59d3 19bd
00000300: 74b1 e1bb 0926 a0bc e765 16bd e666 1abd
00000310: 94ba 363c e932 ff3a 3c48 ba3c 2e03 0a3d
00000320: a7a5 2b3c dcf2 7bbc 9f9e cc3c fcd2 333c
00000330: cb0d fb3c 46be 913c 1b1c ea39 75b1 8f3c
00000340: 4586 40bd 99f7 c63c e32b 053d 529b 83bb
00000350: 0e16 15bd 1de2 c53c 08a6 3f3b ea87 63bc
00000360: f10d 59bb 8940 183d ba84 17bc 3f48 303d
00000370: c425 103d 5fcf a73c 6a05 b63c 5732 cebc
00000380: 289e 1ebd 9e67 153d b654 d93c 1167 fcbc
00000390: 8ea8 c8bc b5ab cc3c aa2b 353c a80a d33c
000003a0: 7b0f 07bd 9b76 cc3c 4039 b7ba 3a62 0ebd
000003b0: 3734 313d 2eac 3dbc 0b8d 7abc d594 0cbd
000003c0: bdd1 90bc 27a2 cebc b936 41bb a417 15bd
000003d0: e10f 4fbd 66ce 35bd 8f8b c7bc 1f85 a0bc
000003e0: 1f86 a63b d462 3d3c 1ae2 be3c d442 f7bc
000003f0: 7acb 023d b55b df3c 53f9 0cbd 345d 09bd
-0.046841487 0.030435009 0.03843597 0.041822452 0.0065745045 0.029142898 -0.003250418 -0.03355693
-0.03889368 -0.029637001 0.015333907 -0.0091022495 0.014603942 0.018000836 -0.026143111 0.00049644866
0.03922666 0.02883341 -0.0036312824 -0.005521014 -0.010504987 0.011811388 -0.024277315 0.04033939
0.0012204644 -0.028440373 -0.025037104 -0.011662233 -0.030808633 -0.014306986 -0.04317657 0.013824323
-0.0125242025 0.014077955 -0.024243854 -0.018284993 -0.020310456 0.0018584307 -0.03370787 -0.03838235
0.0077841147 -0.037271876 0.03955801 0.038113512 0.025944568 0.029130517 -0.028542975 0.005596514
0.013741152 0.046033904 -0.03416731 -0.0044448143 0.024385342 0.0221682 -0.040652066 0.037873127
0.023946073 0.03754301 -0.016281426 -0.020545928 0.009843805 0.028936137 0.04044812 -0.02366335
0.02603153 -0.009634523 -0.0187535 0.02600649 0.017277215 0.00701531 -0.02753169 0.043359566
-0.0048912996 -4.227877e-05 -0.013365837 -0.036598343 -0.002768323 0.012368838 0.0037437694 -0.0069359033
0.040301386 -0.0065673757 -0.034518797 -0.018439995 -0.008007512 0.028043374 0.037144914 0.015288587
0.05126423 0.03907886 0.016891487 0.02457723 0.023366528 0.00533483 0.04431548 -0.010144078
-0.03390828 -0.040394846 0.026091024 -0.027057193 0.016951365 0.0016084868 -0.040544815 -0.013131202
0.017349327 0.0012922024 0.01596179 -0.017556034 -0.016222717 -0.009472287 -0.03793152 -0.0077650505
0.005621138 0.01570267 -0.02049404 0.029835703 -0.008136181 -0.010856086 -0.013084471 0.034415614
-0.0020804482 -0.02522222 -0.028863668 -0.0023303244 0.01025345 -0.030480739 -0.042750422 0.017969925
0.010894712 -0.027382119 -0.02381122 0.03410415 -0.029062195 0.025738964 -0.029791934 0.015607656
-0.0052994117 0.013969107 0.013912574 -0.024143983 -0.041582335 -0.0069446005 0.007128397 -0.01052228
0.011248315 0.03649878 -0.028758364 0.015387125 0.01645965 0.025157943 -0.020643154 -0.0450191
-0.028180724 7.480529e-05 -0.047695875 0.036721546 0.039572604 0.0110308025 -0.03264929 -0.04626317
0.022349276 -0.028273059 0.011897705 0.036140215 -0.026607668 0.023649452 0.0013031316 0.013225948
0.021222508 0.0036250327 0.015515743 -0.01233816 0.014511089 0.010675563 0.031091953 0.03966523
0.013041032 0.03493242 -0.0417075 -0.019987218 -0.040787686 -0.015694022 0.03438295 -0.040096074
0.0240179 -0.016419945 0.0028579142 -0.032607652 -0.02547541 0.007688248 0.0027837884 -0.037555072
-0.006887609 -0.019549387 -0.036718275 -0.037695788 0.011152882 0.0019470128 0.022739522 0.03369444
0.010476506 -0.015377726 0.02497798 0.010975596 0.030646225 0.017790925 0.00044652898 0.017540673
-0.04700305 0.024287986 0.032512557 -0.0040163184 -0.036397986 0.02415567 0.002924325 -0.013887385
-0.0033119882 0.03717092 -0.009247953 0.04303765 0.035192266 0.020484624 0.022219379 -0.025170488
-0.03872505 0.03647577 0.026529651 -0.030810865 -0.024494436 0.02498422 0.011057774 0.025761917
-0.032973748 0.0249589 -0.0013978854 -0.034761645 0.043262687 -0.011576695 -0.015292416 -0.034321625
-0.017678136 -0.025223805 -0.002948208 -0.0363995 -0.050552253 -0.04438629 -0.024358539 -0.019594727
0.0050819064 0.011559207 0.023301173 -0.030183233 0.03193233 0.027265409 -0.03441746 -0.03353615

fc1.bias f4 [32]
00000000: 53a4 2bbd af35 f3bc 49cb 92bd b36b 4dbc
00000010: 91c8 2d3d bdd4 923d 8b2c 1cbd be0b 54bc
00000020: 1e12 a23b d611 c33d ea3b e8bc 6df8 4dbc
00000030: 4e27 273c da4b c83d f153 d13b b7d7 1c3d
00000040: 3cb3 153d 63c0 7d3d efe8 973d 09f7 04bc
00000050: ed5b 90bc 1996 983d d873 acbd aded a43c
00000060: 9b9e d9bd 0f02 66bc 9c96 30bc 7f4f a0bc
00000070: f5c9 a6bc a1c1 1e3b 6d55 08be ee39 e8bc
-0.04190476 -0.029688684 -0.0716768 -0.0125378845 0.042427603 0.07169483 -0.038128417 -0.012942253
0.0049460074 0.09524886 -0.028348882 -0.012571436 0.010202242 0.097800925 0.0063881804 0.03829166
0.036547884 0.061951052 0.074174754 -0.008115538 -0.017621959 0.07450504 -0.08420533 0.020132864
-0.10625955 -0.014038577 -0.010778096 -0.019569157 -0.020359972 0.0024224299 -0.13313837 -0.028347936

fc2.weight f4 [2, 32]
00000000: 68c2 5bbe 7b04 2dbe 6c7b eebd eaaa 5ebe
00000010: eec5 b33e 88d5 953e 4a9f ecbc 1008 12bf
00000020: 9218 6cbe 905c e33e 25b7 68bd 5e26 0a3f
00000030: 95d2 0a3d 6023 083f fdbc 59bd e55e 993e
00000040: 6014 053f 9838 cc3e 38de a53e 2150 1b3c
00000050: 3f97 b33b fc75 263f 5b4d f4be d847 953e
00000060: ba94 0abf 82e3 363f 8d2c 83be d8b5 053d
00000070: 2ed8 b0be 31da a6be 030c 18bf db20 a6bc
00000080: bdc6 47bd 441d 8f3e 4b5b a33e d01d 39bd
00000090: 1d85 b1be 07af a8be c710 25bd b4be 083f
000000a0: 6a43 3d3e ce84 05bf 00f9 5ebd 2507 fdbe
000000b0: 7f74 f2bd 3156 14bf e5fe 67bd 9a1d 72bd
000000c0: 4ef1 1abf 171e 82be da1d 18be 085c 4c3d
000000d0: eb24 4b3e 20ab 2bbf fac7 063f f844 2bbe
000000e0: 76a8 d73e 6260 1ebf 8501 88bd 3e91 0a3d
000000f0: aa30 8b3e c7fd 7c3e 244a 033f fe12 093c
-0.21460879 -0.1689624 -0.116446346 -0.21744886 0.35111946 0.29264474 -0.028884549 -0.5704355
-0.23056248 0.44406557 -0.056815285 0.53964794 0.033892233 0.5317898 -0.05315875 0.2995521
0.51984215 0.39886928 0.32396102 0.009479553 0.0054806764 0.6502378 -0.47715268 0.29156375
-0.5413319 0.714409 -0.25619927 0.032644123 -0.34539932 -0.32588342 -0.5939333 -0.020279339
-0.048773516 0.27952015 0.31905589 -0.045194447 -0.3467187 -0.32946035 -0.040299203 0.5341599
0.18482748 -0.5215577 -0.054436684 -0.49419513 -0.11838626 -0.5794402 -0.05663957 -0.05911026
-0.6052445 -0.25413582 -0.14855137 0.049892455 0.19838302 -0.6705799 0.5264889 -0.16725528
0.42120713 -0.6186582 -0.06640915 0.03382992 0.27185565 0.24706183 0.51285005 0.0083663445

fc2.bias f4 [2]
00000000: 0cad 8f3e 2022 973c
0.28061712 0.01844889
